…
ue, '_parameters': OrderedDict(), '_buffers': OrderedDict(), '_non_persistent_buffers_set': set(), '_backward_hooks': OrderedDict(), '_is_full_backward_hook': None, '_forward_hooks': OrderedDict(), '_forward_pre_hooks': OrderedDict(), '_state_dict_hooks': OrderedDict(), '_load_state_dict_pre_hooks': OrderedDict(), '_modules': OrderedDict([('model', EnsembleModel(
  (single_model): CS291KModel(
    (encoder): CS291KEncoder(
      (w2v_model): Wav2Vec2Model(
        (feature_extractor): ConvFeatureExtractionModel(
          (conv_layers): ModuleList(
            (0): Sequential(
              (0): Conv1d(1, 512, kernel_size=(10,), stride=(5,), bias=False)
              (1): Dropout(p=0.0, inplace=False)
              (2): Fp32GroupNorm(512, 512, eps=1e-05, affine=True)
              (3): GELU()
            )
            (1): Sequential(
              (0): Conv1d(512, 512, kernel_size=(3,), stride=(2,), bias=False)
              (1): Dropout(p=0.0, inplace=False)
              (2): GELU()
            )
            (2): Sequential(
              (0): Conv1d(512, 512, kernel_size=(3,), stride=(2,), bias=False)
              (1): Dropout(p=0.0, inplace=False)
              (2): GELU()
            )
            (3): Sequential(
              (0): Conv1d(512, 512, kernel_size=(3,), stride=(2,), bias=False)
              (1): Dropout(p=0.0, inplace=False)
              (2): GELU()
            )
            (4): Sequential(
              (0): Conv1d(512, 512, kernel_size=(3,), stride=(2,), bias=False)
              (1): Dropout(p=0.0, inplace=False)
              (2): GELU()
            )
            (5): Sequential(
              (0): Conv1d(512, 512, kernel_size=(2,), stride=(2,), bias=False)
              (1): Dropout(p=0.0, inplace=False)
              (2): GELU()
            )
            (6): Sequential(
              (0): Conv1d(512, 512, kernel_size=(2,), stride=(2,), bias=False)
              (1): Dropout(p=0.0, inplace=False)
              (2): GELU()
            )
          )
        )
        (post_extract_proj): Linear(in_features=512, out_features=768, bias=True)
        (dropout_input): Dropout(p=0.1, inplace=False)
        (dropout_features): Dropout(p=0.1, inplace=False)
        (quantizer): GumbelVectorQuantizer(
          (weight_proj): Linear(in_features=512, out_features=640, bias=True)
        )
        (project_q): Linear(in_features=256, out_features=256, bias=True)
        (encoder): TransformerEncoder(
          (pos_conv): Sequential(
            (0): Conv1d(768, 768, kernel_size=(128,), stride=(1,), padding=(64,), groups=16)
            (1): SamePad()
            (2): GELU()
          )
          (layers): ModuleList(
            (0): TransformerSentenceEncoderLayer(
              (self_attn): MultiheadAttention(
                (dropout_module): FairseqDropout()
                (k_proj): Linear(in_features=768, out_features=768, bias=True)
                (v_proj): Linear(in_features=768, out_features=768, bias=True)
                (q_proj): Linear(in_features=768, out_features=768, bias=True)
                (out_proj): Linear(in_features=768, out_features=768, bias=True)
              )
              (dropout1): Dropout(p=0.1, inplace=False)
              (dropout2): Dropout(p=0.0, inplace=False)
              (dropout3): Dropout(p=0.1, inplace=False)
              (self_attn_layer_norm): LayerNorm((768,), eps=1e-05, elementwise_affine=True)
              (fc1): Linear(in_features=768, out_features=3072, bias=True)
              (fc2): Linear(in_features=3072, out_features=768, bias=True)
              (final_layer_norm): LayerNorm((768,), eps=1e-05, elementwise_affine=True)
            )
            (1): TransformerSentenceEncoderLayer(
              (self_attn): MultiheadAttention(
                (dropout_module): FairseqDropout()
                (k_proj): Linear(in_features=768, out_features=768, bias=True)
                (v_proj): Linear(in_features=768, out_features=768, bias=True)
                (q_proj): Linear(in_features=768, out_features=768, bias=True)
                (out_proj): Linear(in_features=768, out_features=768, bias=True)
              )
              (dropout1): Dropout(p=0.1, inplace=False)
              (dropout2): Dropout(p=0.0, inplace=False)
              (dropout3): Dropout(p=0.1, inplace=False)
              (self_attn_layer_norm): LayerNorm((768,), eps=1e-05, elementwise_affine=True)
              (fc1): Linear(in_features=768, out_features=3072, bias=True)
              (fc2): Linear(in_features=3072, out_features=768, bias=True)
              (final_layer_norm): LayerNorm((768,), eps=1e-05, elementwise_affine=True)
            )
            (2): TransformerSentenceEncoderLayer(
              (self_attn): MultiheadAttention(
                (dropout_module): FairseqDropout()
                (k_proj): Linear(in_features=768, out_features=768, bias=True)
                (v_proj): Linear(in_features=768, out_features=768, bias=True)
                (q_proj): Linear(in_features=768, out_features=768, bias=True)
                (out_proj): Linear(in_features=768, out_features=768, bias=True)
              )
              (dropout1): Dropout(p=0.1, inplace=False)
              (dropout2): Dropout(p=0.0, inplace=False)
              (dropout3): Dropout(p=0.1, inplace=False)
              (self_attn_layer_norm): LayerNorm((768,), eps=1e-05, elementwise_affine=True)
              (fc1): Linear(in_features=768, out_features=3072, bias=True)
              (fc2): Linear(in_features=3072, out_features=768, bias=True)
              (final_layer_norm): LayerNorm((768,), eps=1e-05, elementwise_affine=True)
            )
            (3): TransformerSentenceEncoderLayer(
              (self_attn): MultiheadAttention(
                (dropout_module): FairseqDropout()
                (k_proj): Linear(in_features=768, out_features=768, bias=True)
                (v_proj): Linear(in_features=768, out_features=768, bias=True)
                (q_proj): Linear(in_features=768, out_features=768, bias=True)
                (out_proj): Linear(in_features=768, out_features=768, bias=True)
              )
              (dropout1): Dropout(p=0.1, inplace=False)
              (dropout2): Dropout(p=0.0, inplace=False)
              (dropout3): Dropout(p=0.1, inplace=False)
              (self_attn_layer_norm): LayerNorm((768,), eps=1e-05, elementwise_affine=True)
              (fc1): Linear(in_features=768, out_features=3072, bias=True)
              (fc2): Linear(in_features=3072, out_features=768, bias=True)
              (final_layer_norm): LayerNorm((768,), eps=1e-05, elementwise_affine=True)
            )
            (4): TransformerSentenceEncoderLayer(
              (self_attn): MultiheadAttention(
                (dropout_module): FairseqDropout()
                (k_proj): Linear(in_features=768, out_features=768, bias=True)
                (v_proj): Linear(in_features=768, out_features=768, bias=True)
                (q_proj): Linear(in_features=768, out_features=768, bias=True)
                (out_proj): Linear(in_features=768, out_features=768, bias=True)
              )
              (dropout1): Dropout(p=0.1, inplace=False)
              (dropout2): Dropout(p=0.0, inplace=False)
              (dropout3): Dropout(p=0.1, inplace=False)
              (self_attn_layer_norm): LayerNorm((768,), eps=1e-05, elementwise_affine=True)
              (fc1): Linear(in_features=768, out_features=3072, bias=True)
              (fc2): Linear(in_features=3072, out_features=768, bias=True)
              (final_layer_norm): LayerNorm((768,), eps=1e-05, elementwise_affine=True)
            )
            (5): TransformerSentenceEncoderLayer(
              (self_attn): MultiheadAttention(
                (dropout_module): FairseqDropout()
                (k_proj): Linear(in_features=768, out_features=768, bias=True)
                (v_proj): Linear(in_features=768, out_features=768, bias=True)
                (q_proj): Linear(in_features=768, out_features=768, bias=True)
                (out_proj): Linear(in_features=768, out_features=768, bias=True)
              )
              (dropout1): Dropout(p=0.1, inplace=False)
              (dropout2): Dropout(p=0.0, inplace=False)
              (dropout3): Dropout(p=0.1, inplace=False)
              (self_attn_layer_norm): LayerNorm((768,), eps=1e-05, elementwise_affine=True)
              (fc1): Linear(in_features=768, out_features=3072, bias=True)
              (fc2): Linear(in_features=3072, out_features=768, bias=True)
              (final_layer_norm): LayerNorm((768,), eps=1e-05, elementwise_affine=True)
            )
            (6): TransformerSentenceEncoderLayer(
              (self_attn): MultiheadAttention(
                (dropout_module): FairseqDropout()
                (k_proj): Linear(in_features=768, out_features=768, bias=True)
                (v_proj): Linear(in_features=768, out_features=768, bias=True)
                (q_proj): Linear(in_features=768, out_features=768, bias=True)
                (out_proj): Linear(in_features=768, out_features=768, bias=True)
              )
              (dropout1): Dropout(p=0.1, inplace=False)
              (dropout2): Dropout(p=0.0, inplace=False)
              (dropout3): Dropout(p=0.1, inplace=False)
              (self_attn_layer_norm): LayerNorm((768,), eps=1e-05, elementwise_affine=True)
              (fc1): Linear(in_features=768, out_features=3072, bias=True)
              (fc2): Linear(in_features=3072, out_features=768, bias=True)
              (final_layer_norm): LayerNorm((768,), eps=1e-05, elementwise_affine=True)
            )
            (7): TransformerSentenceEncoderLayer(
              (self_attn): MultiheadAttention(
                (dropout_module): FairseqDropout()
                (k_proj): Linear(in_features=768, out_features=768, bias=True)
                (v_proj): Linear(in_features=768, out_features=768, bias=True)
                (q_proj): Linear(in_features=768, out_features=768, bias=True)
                (out_proj): Linear(in_features=768, out_features=768, bias=True)
              )
              (dropout1): Dropout(p=0.1, inplace=False)
              (dropout2): Dropout(p=0.0, inplace=False)
              (dropout3): Dropout(p=0.1, inplace=False)
              (self_attn_layer_norm): LayerNorm((768,), eps=1e-05, elementwise_affine=True)
              (fc1): Linear(in_features=768, out_features=3072, bias=True)
              (fc2): Linear(in_features=3072, out_features=768, bias=True)
              (final_layer_norm): LayerNorm((768,), eps=1e-05, elementwise_affine=True)
            )
            (8): TransformerSentenceEncoderLayer(
              (self_attn): MultiheadAttention(
                (dropout_module): FairseqDropout()
                (k_proj): Linear(in_features=768, out_features=768, bias=True)
                (v_proj): Linear(in_features=768, out_features=768, bias=True)
                (q_proj): Linear(in_features=768, out_features=768, bias=True)
                (out_proj): Linear(in_features=768, out_features=768, bias=True)
              )
              (dropout1): Dropout(p=0.1, inplace=False)
              (dropout2): Dropout(p=0.0, inplace=False)
              (dropout3): Dropout(p=0.1, inplace=False)
              (self_attn_layer_norm): LayerNorm((768,), eps=1e-05, elementwise_affine=True)
              (fc1): Linear(in_features=768, out_features=3072, bias=True)
              (fc2): Linear(in_features=3072, out_features=768, bias=True)
              (final_layer_norm): LayerNorm((768,), eps=1e-05, elementwise_affine=True)
            )
            (9): TransformerSentenceEncoderLayer(
              (self_attn): MultiheadAttention(
                (dropout_module): FairseqDropout()
                (k_proj): Linear(in_features=768, out_features=768, bias=True)
                (v_proj): Linear(in_features=768, out_features=768, bias=True)
                (q_proj): Linear(in_features=768, out_features=768, bias=True)
                (out_proj): Linear(in_features=768, out_features=768, bias=True)
              )
              (dropout1): Dropout(p=0.1, inplace=False)
              (dropout2): Dropout(p=0.0, inplace=False)
              (dropout3): Dropout(p=0.1, inplace=False)
              (self_attn_layer_norm): LayerNorm((768,), eps=1e-05, elementwise_affine=True)
              (fc1): Linear(in_features=768, out_features=3072, bias=True)
              (fc2): Linear(in_features=3072, out_features=768, bias=True)
              (final_layer_norm): LayerNorm((768,), eps=1e-05, elementwise_affine=True)
            )
            (10): TransformerSentenceEncoderLayer(
              (self_attn): MultiheadAttention(
                (dropout_module): FairseqDropout()
                (k_proj): Linear(in_features=768, out_features=768, bias=True)
                (v_proj): Linear(in_features=768, out_features=768, bias=True)
                (q_proj): Linear(in_features=768, out_features=768, bias=True)
                (out_proj): Linear(in_features=768, out_features=768, bias=True)
              )
              (dropout1): Dropout(p=0.1, inplace=False)
              (dropout2): Dropout(p=0.0, inplace=False)
              (dropout3): Dropout(p=0.1, inplace=False)
              (self_attn_layer_norm): LayerNorm((768,), eps=1e-05, elementwise_affine=True)
              (fc1): Linear(in_features=768, out_features=3072, bias=True)
              (fc2): Linear(in_features=3072, out_features=768, bias=True)
              (final_layer_norm): LayerNorm((768,), eps=1e-05, elementwise_affine=True)
            )
            (11): TransformerSentenceEncoderLayer(
              (self_attn): MultiheadAttention(
                (dropout_module): FairseqDropout()
                (k_proj): Linear(in_features=768, out_features=768, bias=True)
                (v_proj): Linear(in_features=768, out_features=768, bias=True)
                (q_proj): Linear(in_features=768, out_features=768, bias=True)
                (out_proj): Linear(in_features=768, out_features=768, bias=True)
              )
              (dropout1): Dropout(p=0.1, inplace=False)
              (dropout2): Dropout(p=0.0, inplace=False)
              (dropout3): Dropout(p=0.1, inplace=False)
              (self_attn_layer_norm): LayerNorm((768,), eps=1e-05, elementwise_affine=True)
              (fc1): Linear(in_features=768, out_features=3072, bias=True)
              (fc2): Linear(in_features=3072, out_features=768, bias=True)
              (final_layer_norm): LayerNorm((768,), eps=1e-05, elementwise_affine=True)
            )
          )
          (layer_norm): LayerNorm((768,), eps=1e-05, elementwise_affine=True)
        )
        (layer_norm): LayerNorm((512,), eps=1e-05, elementwise_affine=True)
        (final_proj): Linear(in_features=768, out_features=256, bias=True)
      )
      (dropout): FairseqDropout()
      (cif_proj): Linear(in_features=767, out_features=512, bias=True)
      (text_embedding): Embedding(10000, 512, padding_idx=1)
      (embed_positions): SinusoidalPositionalEmbedding()
      (transformer_layers): ModuleList(
        (0): TransformerEncoderLayer(
          (self_attn): MultiheadAttention(
            (dropout_module): FairseqDropout()
            (k_proj): Linear(in_features=512, out_features=512, bias=True)
            (v_proj): Linear(in_features=512, out_features=512, bias=True)
            (q_proj): Linear(in_features=512, out_features=512, bias=True)
            (out_proj): Linear(in_features=512, out_features=512, bias=True)
          )
          (self_attn_layer_norm): LayerNorm((512,), eps=1e-05, elementwise_affine=True)
          (dropout_module): FairseqDropout()
          (activation_dropout_module): FairseqDropout()
          (fc1): Linear(in_features=512, out_features=2048, bias=True)
          (fc2): Linear(in_features=2048, out_features=512, bias=True)
          (final_layer_norm): LayerNorm((512,), eps=1e-05, elementwise_affine=True)
        )
        (1): TransformerEncoderLayer(
          (self_attn): MultiheadAttention(
            (dropout_module): FairseqDropout()
            (k_proj): Linear(in_features=512, out_features=512, bias=True)
            (v_proj): Linear(in_features=512, out_features=512, bias=True)
            (q_proj): Linear(in_features=512, out_features=512, bias=True)
            (out_proj): Linear(in_features=512, out_features=512, bias=True)
          )
          (self_attn_layer_norm): LayerNorm((512,), eps=1e-05, elementwise_affine=True)
          (dropout_module): FairseqDropout()
          (activation_dropout_module): FairseqDropout()
          (fc1): Linear(in_features=512, out_features=2048, bias=True)
          (fc2): Linear(in_features=2048, out_features=512, bias=True)
          (final_layer_norm): LayerNorm((512,), eps=1e-05, elementwise_affine=True)
        )
        (2): TransformerEncoderLayer(
          (self_attn): MultiheadAttention(
            (dropout_module): FairseqDropout()
            (k_proj): Linear(in_features=512, out_features=512, bias=True)
            (v_proj): Linear(in_features=512, out_features=512, bias=True)
            (q_proj): Linear(in_features=512, out_features=512, bias=True)
            (out_proj): Linear(in_features=512, out_features=512, bias=True)
          )
          (self_attn_layer_norm): LayerNorm((512,), eps=1e-05, elementwise_affine=True)
          (dropout_module): FairseqDropout()
          (activation_dropout_module): FairseqDropout()
          (fc1): Linear(in_features=512, out_features=2048, bias=True)
          (fc2): Linear(in_features=2048, out_features=512, bias=True)
          (final_layer_norm): LayerNorm((512,), eps=1e-05, elementwise_affine=True)
        )
        (3): TransformerEncoderLayer(
          (self_attn): MultiheadAttention(
            (dropout_module): FairseqDropout()
            (k_proj): Linear(in_features=512, out_features=512, bias=True)
            (v_proj): Linear(in_features=512, out_features=512, bias=True)
            (q_proj): Linear(in_features=512, out_features=512, bias=True)
            (out_proj): Linear(in_features=512, out_features=512, bias=True)
          )
          (self_attn_layer_norm): LayerNorm((512,), eps=1e-05, elementwise_affine=True)
          (dropout_module): FairseqDropout()
          (activation_dropout_module): FairseqDropout()
          (fc1): Linear(in_features=512, out_features=2048, bias=True)
          (fc2): Linear(in_features=2048, out_features=512, bias=True)
          (final_layer_norm): LayerNorm((512,), eps=1e-05, elementwise_affine=True)
        )
        (4): TransformerEncoderLayer(
          (self_attn): MultiheadAttention(
            (dropout_module): FairseqDropout()
            (k_proj): Linear(in_features=512, out_features=512, bias=True)
            (v_proj): Linear(in_features=512, out_features=512, bias=True)
            (q_proj): Linear(in_features=512, out_features=512, bias=True)
            (out_proj): Linear(in_features=512, out_features=512, bias=True)
          )
          (self_attn_layer_norm): LayerNorm((512,), eps=1e-05, elementwise_affine=True)
          (dropout_module): FairseqDropout()
          (activation_dropout_module): FairseqDropout()
          (fc1): Linear(in_features=512, out_features=2048, bias=True)
          (fc2): Linear(in_features=2048, out_features=512, bias=True)
          (final_layer_norm): LayerNorm((512,), eps=1e-05, elementwise_affine=True)
        )
        (5): TransformerEncoderLayer(
          (self_attn): MultiheadAttention(
            (dropout_module): FairseqDropout()
            (k_proj): Linear(in_features=512, out_features=512, bias=True)
            (v_proj): Linear(in_features=512, out_features=512, bias=True)
            (q_proj): Linear(in_features=512, out_features=512, bias=True)
            (out_proj): Linear(in_features=512, out_features=512, bias=True)
          )
          (self_attn_layer_norm): LayerNorm((512,), eps=1e-05, elementwise_affine=True)
          (dropout_module): FairseqDropout()
          (activation_dropout_module): FairseqDropout()
          (fc1): Linear(in_features=512, out_features=2048, bias=True)
          (fc2): Linear(in_features=2048, out_features=512, bias=True)
          (final_layer_norm): LayerNorm((512,), eps=1e-05, elementwise_affine=True)
        )
      )
      (layer_norm): LayerNorm((512,), eps=1e-05, elementwise_affine=True)
      (cnn_subsampler): Conv1dSubsampler(
        (conv_layers): ModuleList(
          (0): Conv1d(768, 1024, kernel_size=(5,), stride=(2,), padding=(2,))
          (1): Conv1d(512, 1024, kernel_size=(5,), stride=(2,), padding=(2,))
        )
      )
    )
    (decoder): TransformerDecoderScriptable(
      (dropout_module): FairseqDropout()
      (embed_tokens): Embedding(10000, 512, padding_idx=1)
      (embed_positions): SinusoidalPositionalEmbedding()
      (layers): ModuleList(
        (0): TransformerDecoderLayer(
          (dropout_module): FairseqDropout()
          (self_attn): MultiheadAttention(
            (dropout_module): FairseqDropout()
            (k_proj): Linear(in_features=512, out_features=512, bias=True)
            (v_proj): Linear(in_features=512, out_features=512, bias=True)
            (q_proj): Linear(in_features=512, out_features=512, bias=True)
            (out_proj): Linear(in_features=512, out_features=512, bias=True)
          )
          (activation_dropout_module): FairseqDropout()
          (self_attn_layer_norm): LayerNorm((512,), eps=1e-05, elementwise_affine=True)
          (encoder_attn): MultiheadAttention(
            (dropout_module): FairseqDropout()
            (k_proj): Linear(in_features=512, out_features=512, bias=True)
            (v_proj): Linear(in_features=512, out_features=512, bias=True)
            (q_proj): Linear(in_features=512, out_features=512, bias=True)
            (out_proj): Linear(in_features=512, out_features=512, bias=True)
          )
          (encoder_attn_layer_norm): LayerNorm((512,), eps=1e-05, elementwise_affine=True)
          (fc1): Linear(in_features=512, out_features=2048, bias=True)
          (fc2): Linear(in_features=2048, out_features=512, bias=True)
          (final_layer_norm): LayerNorm((512,), eps=1e-05, elementwise_affine=True)
        )
        (1): TransformerDecoderLayer(
          (dropout_module): FairseqDropout()
          (self_attn): MultiheadAttention(
            (dropout_module): FairseqDropout()
            (k_proj): Linear(in_features=512, out_features=512, bias=True)
            (v_proj): Linear(in_features=512, out_features=512, bias=True)
            (q_proj): Linear(in_features=512, out_features=512, bias=True)
            (out_proj): Linear(in_features=512, out_features=512, bias=True)
          )
          (activation_dropout_module): FairseqDropout()
          (self_attn_layer_norm): LayerNorm((512,), eps=1e-05, elementwise_affine=True)
          (encoder_attn): MultiheadAttention(
            (dropout_module): FairseqDropout()
            (k_proj): Linear(in_features=512, out_features=512, bias=True)
            (v_proj): Linear(in_features=512, out_features=512, bias=True)
            (q_proj): Linear(in_features=512, out_features=512, bias=True)
            (out_proj): Linear(in_features=512, out_features=512, bias=True)
          )
          (encoder_attn_layer_norm): LayerNorm((512,), eps=1e-05, elementwise_affine=True)
          (fc1): Linear(in_features=512, out_features=2048, bias=True)
          (fc2): Linear(in_features=2048, out_features=512, bias=True)
          (final_layer_norm): LayerNorm((512,), eps=1e-05, elementwise_affine=True)
        )
        (2): TransformerDecoderLayer(
          (dropout_module): FairseqDropout()
          (self_attn): MultiheadAttention(
            (dropout_module): FairseqDropout()
            (k_proj): Linear(in_features=512, out_features=512, bias=True)
            (v_proj): Linear(in_features=512, out_features=512, bias=True)
            (q_proj): Linear(in_features=512, out_features=512, bias=True)
            (out_proj): Linear(in_features=512, out_features=512, bias=True)
          )
          (activation_dropout_module): FairseqDropout()
          (self_attn_layer_norm): LayerNorm((512,), eps=1e-05, elementwise_affine=True)
          (encoder_attn): MultiheadAttention(
            (dropout_module): FairseqDropout()
            (k_proj): Linear(in_features=512, out_features=512, bias=True)
            (v_proj): Linear(in_features=512, out_features=512, bias=True)
            (q_proj): Linear(in_features=512, out_features=512, bias=True)
            (out_proj): Linear(in_features=512, out_features=512, bias=True)
          )
          (encoder_attn_layer_norm): LayerNorm((512,), eps=1e-05, elementwise_affine=True)
          (fc1): Linear(in_features=512, out_features=2048, bias=True)
          (fc2): Linear(in_features=2048, out_features=512, bias=True)
          (final_layer_norm): LayerNorm((512,), eps=1e-05, elementwise_affine=True)
        )
        (3): TransformerDecoderLayer(
          (dropout_module): FairseqDropout()
          (self_attn): MultiheadAttention(
            (dropout_module): FairseqDropout()
            (k_proj): Linear(in_features=512, out_features=512, bias=True)
            (v_proj): Linear(in_features=512, out_features=512, bias=True)
            (q_proj): Linear(in_features=512, out_features=512, bias=True)
            (out_proj): Linear(in_features=512, out_features=512, bias=True)
          )
          (activation_dropout_module): FairseqDropout()
          (self_attn_layer_norm): LayerNorm((512,), eps=1e-05, elementwise_affine=True)
          (encoder_attn): MultiheadAttention(
            (dropout_module): FairseqDropout()
            (k_proj): Linear(in_features=512, out_features=512, bias=True)
            (v_proj): Linear(in_features=512, out_features=512, bias=True)
            (q_proj): Linear(in_features=512, out_features=512, bias=True)
            (out_proj): Linear(in_features=512, out_features=512, bias=True)
          )
          (encoder_attn_layer_norm): LayerNorm((512,), eps=1e-05, elementwise_affine=True)
          (fc1): Linear(in_features=512, out_features=2048, bias=True)
          (fc2): Linear(in_features=2048, out_features=512, bias=True)
          (final_layer_norm): LayerNorm((512,), eps=1e-05, elementwise_affine=True)
        )
        (4): TransformerDecoderLayer(
          (dropout_module): FairseqDropout()
          (self_attn): MultiheadAttention(
            (dropout_module): FairseqDropout()
            (k_proj): Linear(in_features=512, out_features=512, bias=True)
            (v_proj): Linear(in_features=512, out_features=512, bias=True)
            (q_proj): Linear(in_features=512, out_features=512, bias=True)
            (out_proj): Linear(in_features=512, out_features=512, bias=True)
          )
          (activation_dropout_module): FairseqDropout()
          (self_attn_layer_norm): LayerNorm((512,), eps=1e-05, elementwise_affine=True)
          (encoder_attn): MultiheadAttention(
            (dropout_module): FairseqDropout()
            (k_proj): Linear(in_features=512, out_features=512, bias=True)
            (v_proj): Linear(in_features=512, out_features=512, bias=True)
            (q_proj): Linear(in_features=512, out_features=512, bias=True)
            (out_proj): Linear(in_features=512, out_features=512, bias=True)
          )
          (encoder_attn_layer_norm): LayerNorm((512,), eps=1e-05, elementwise_affine=True)
          (fc1): Linear(in_features=512, out_features=2048, bias=True)
          (fc2): Linear(in_features=2048, out_features=512, bias=True)
          (final_layer_norm): LayerNorm((512,), eps=1e-05, elementwise_affine=True)
        )
        (5): TransformerDecoderLayer(
          (dropout_module): FairseqDropout()
          (self_attn): MultiheadAttention(
            (dropout_module): FairseqDropout()
            (k_proj): Linear(in_features=512, out_features=512, bias=True)
            (v_proj): Linear(in_features=512, out_features=512, bias=True)
            (q_proj): Linear(in_features=512, out_features=512, bias=True)
            (out_proj): Linear(in_features=512, out_features=512, bias=True)
          )
          (activation_dropout_module): FairseqDropout()
          (self_attn_layer_norm): LayerNorm((512,), eps=1e-05, elementwise_affine=True)
          (encoder_attn): MultiheadAttention(
            (dropout_module): FairseqDropout()
            (k_proj): Linear(in_features=512, out_features=512, bias=True)
            (v_proj): Linear(in_features=512, out_features=512, bias=True)
            (q_proj): Linear(in_features=512, out_features=512, bias=True)
            (out_proj): Linear(in_features=512, out_features=512, bias=True)
          )
          (encoder_attn_layer_norm): LayerNorm((512,), eps=1e-05, elementwise_affine=True)
          (fc1): Linear(in_features=512, out_features=2048, bias=True)
          (fc2): Linear(in_features=2048, out_features=512, bias=True)
          (final_layer_norm): LayerNorm((512,), eps=1e-05, elementwise_affine=True)
        )
      )
      (layer_norm): LayerNorm((512,), eps=1e-05, elementwise_affine=True)
      (output_projection): Linear(in_features=512, out_features=10000, bias=False)
    )
  )
  (models): ModuleList(
    (0): CS291KModel(
      (encoder): CS291KEncoder(
        (w2v_model): Wav2Vec2Model(
          (feature_extractor): ConvFeatureExtractionModel(
            (conv_layers): ModuleList(
              (0): Sequential(
                (0): Conv1d(1, 512, kernel_size=(10,), stride=(5,), bias=False)
                (1): Dropout(p=0.0, inplace=False)
                (2): Fp32GroupNorm(512, 512, eps=1e-05, affine=True)
                (3): GELU()
              )
              (1): Sequential(
                (0): Conv1d(512, 512, kernel_size=(3,), stride=(2,), bias=False)
                (1): Dropout(p=0.0, inplace=False)
                (2): GELU()
              )
              (2): Sequential(
                (0): Conv1d(512, 512, kernel_size=(3,), stride=(2,), bias=False)
                (1): Dropout(p=0.0, inplace=False)
                (2): GELU()
              )
              (3): Sequential(
                (0): Conv1d(512, 512, kernel_size=(3,), stride=(2,), bias=False)
                (1): Dropout(p=0.0, inplace=False)
                (2): GELU()
              )
              (4): Sequential(
                (0): Conv1d(512, 512, kernel_size=(3,), stride=(2,), bias=False)
                (1): Dropout(p=0.0, inplace=False)
                (2): GELU()
              )
              (5): Sequential(
                (0): Conv1d(512, 512, kernel_size=(2,), stride=(2,), bias=False)
                (1): Dropout(p=0.0, inplace=False)
                (2): GELU()
              )
              (6): Sequential(
                (0): Conv1d(512, 512, kernel_size=(2,), stride=(2,), bias=False)
                (1): Dropout(p=0.0, inplace=False)
                (2): GELU()
              )
            )
          )
          (post_extract_proj): Linear(in_features=512, out_features=768, bias=True)
          (dropout_input): Dropout(p=0.1, inplace=False)
          (dropout_features): Dropout(p=0.1, inplace=False)
          (quantizer): GumbelVectorQuantizer(
            (weight_proj): Linear(in_features=512, out_features=640, bias=True)
          )
          (project_q): Linear(in_features=256, out_features=256, bias=True)
          (encoder): TransformerEncoder(
            (pos_conv): Sequential(
              (0): Conv1d(768, 768, kernel_size=(128,), stride=(1,), padding=(64,), groups=16)
              (1): SamePad()
              (2): GELU()
            )
            (layers): ModuleList(
              (0): TransformerSentenceEncoderLayer(
                (self_attn): MultiheadAttention(
                  (dropout_module): FairseqDropout()
                  (k_proj): Linear(in_features=768, out_features=768, bias=True)
                  (v_proj): Linear(in_features=768, out_features=768, bias=True)
                  (q_proj): Linear(in_features=768, out_features=768, bias=True)
                  (out_proj): Linear(in_features=768, out_features=768, bias=True)
                )
                (dropout1): Dropout(p=0.1, inplace=False)
                (dropout2): Dropout(p=0.0, inplace=False)
                (dropout3): Dropout(p=0.1, inplace=False)
                (self_attn_layer_norm): LayerNorm((768,), eps=1e-05, elementwise_affine=True)
                (fc1): Linear(in_features=768, out_features=3072, bias=True)
                (fc2): Linear(in_features=3072, out_features=768, bias=True)
                (final_layer_norm): LayerNorm((768,), eps=1e-05, elementwise_affine=True)
              )
              (1): TransformerSentenceEncoderLayer(
                (self_attn): MultiheadAttention(
                  (dropout_module): FairseqDropout()
                  (k_proj): Linear(in_features=768, out_features=768, bias=True)
                  (v_proj): Linear(in_features=768, out_features=768, bias=True)
                  (q_proj): Linear(in_features=768, out_features=768, bias=True)
                  (out_proj): Linear(in_features=768, out_features=768, bias=True)
                )
                (dropout1): Dropout(p=0.1, inplace=False)
                (dropout2): Dropout(p=0.0, inplace=False)
                (dropout3): Dropout(p=0.1, inplace=False)
                (self_attn_layer_norm): LayerNorm((768,), eps=1e-05, elementwise_affine=True)
                (fc1): Linear(in_features=768, out_features=3072, bias=True)
                (fc2): Linear(in_features=3072, out_features=768, bias=True)
                (final_layer_norm): LayerNorm((768,), eps=1e-05, elementwise_affine=True)
              )
              (2): TransformerSentenceEncoderLayer(
                (self_attn): MultiheadAttention(
                  (dropout_module): FairseqDropout()
                  (k_proj): Linear(in_features=768, out_features=768, bias=True)
                  (v_proj): Linear(in_features=768, out_features=768, bias=True)
                  (q_proj): Linear(in_features=768, out_features=768, bias=True)
                  (out_proj): Linear(in_features=768, out_features=768, bias=True)
                )
                (dropout1): Dropout(p=0.1, inplace=False)
                (dropout2): Dropout(p=0.0, inplace=False)
                (dropout3): Dropout(p=0.1, inplace=False)
                (self_attn_layer_norm): LayerNorm((768,), eps=1e-05, elementwise_affine=True)
                (fc1): Linear(in_features=768, out_features=3072, bias=True)
                (fc2): Linear(in_features=3072, out_features=768, bias=True)
                (final_layer_norm): LayerNorm((768,), eps=1e-05, elementwise_affine=True)
              )
              (3): TransformerSentenceEncoderLayer(
                (self_attn): MultiheadAttention(
                  (dropout_module): FairseqDropout()
                  (k_proj): Linear(in_features=768, out_features=768, bias=True)
                  (v_proj): Linear(in_features=768, out_features=768, bias=True)
                  (q_proj): Linear(in_features=768, out_features=768, bias=True)
                  (out_proj): Linear(in_features=768, out_features=768, bias=True)
                )
                (dropout1): Dropout(p=0.1, inplace=False)
                (dropout2): Dropout(p=0.0, inplace=False)
                (dropout3): Dropout(p=0.1, inplace=False)
                (self_attn_layer_norm): LayerNorm((768,), eps=1e-05, elementwise_affine=True)
                (fc1): Linear(in_features=768, out_features=3072, bias=True)
                (fc2): Linear(in_features=3072, out_features=768, bias=True)
                (final_layer_norm): LayerNorm((768,), eps=1e-05, elementwise_affine=True)
              )
              (4): TransformerSentenceEncoderLayer(
                (self_attn): MultiheadAttention(
                  (dropout_module): FairseqDropout()
                  (k_proj): Linear(in_features=768, out_features=768, bias=True)
                  (v_proj): Linear(in_features=768, out_features=768, bias=True)
                  (q_proj): Linear(in_features=768, out_features=768, bias=True)
                  (out_proj): Linear(in_features=768, out_features=768, bias=True)
                )
                (dropout1): Dropout(p=0.1, inplace=False)
                (dropout2): Dropout(p=0.0, inplace=False)
                (dropout3): Dropout(p=0.1, inplace=False)
                (self_attn_layer_norm): LayerNorm((768,), eps=1e-05, elementwise_affine=True)
                (fc1): Linear(in_features=768, out_features=3072, bias=True)
                (fc2): Linear(in_features=3072, out_features=768, bias=True)
                (final_layer_norm): LayerNorm((768,), eps=1e-05, elementwise_affine=True)
              )
              (5): TransformerSentenceEncoderLayer(
                (self_attn): MultiheadAttention(
                  (dropout_module): FairseqDropout()
                  (k_proj): Linear(in_features=768, out_features=768, bias=True)
                  (v_proj): Linear(in_features=768, out_features=768, bias=True)
                  (q_proj): Linear(in_features=768, out_features=768, bias=True)
                  (out_proj): Linear(in_features=768, out_features=768, bias=True)
                )
                (dropout1): Dropout(p=0.1, inplace=False)
                (dropout2): Dropout(p=0.0, inplace=False)
                (dropout3): Dropout(p=0.1, inplace=False)
                (self_attn_layer_norm): LayerNorm((768,), eps=1e-05, elementwise_affine=True)
                (fc1): Linear(in_features=768, out_features=3072, bias=True)
                (fc2): Linear(in_features=3072, out_features=768, bias=True)
                (final_layer_norm): LayerNorm((768,), eps=1e-05, elementwise_affine=True)
              )
              (6): TransformerSentenceEncoderLayer(
                (self_attn): MultiheadAttention(
                  (dropout_module): FairseqDropout()
                  (k_proj): Linear(in_features=768, out_features=768, bias=True)
                  (v_proj): Linear(in_features=768, out_features=768, bias=True)
                  (q_proj): Linear(in_features=768, out_features=768, bias=True)
                  (out_proj): Linear(in_features=768, out_features=768, bias=True)
                )
                (dropout1): Dropout(p=0.1, inplace=False)
                (dropout2): Dropout(p=0.0, inplace=False)
                (dropout3): Dropout(p=0.1, inplace=False)
                (self_attn_layer_norm): LayerNorm((768,), eps=1e-05, elementwise_affine=True)
                (fc1): Linear(in_features=768, out_features=3072, bias=True)
                (fc2): Linear(in_features=3072, out_features=768, bias=True)
                (final_layer_norm): LayerNorm((768,), eps=1e-05, elementwise_affine=True)
              )
              (7): TransformerSentenceEncoderLayer(
                (self_attn): MultiheadAttention(
                  (dropout_module): FairseqDropout()
                  (k_proj): Linear(in_features=768, out_features=768, bias=True)
                  (v_proj): Linear(in_features=768, out_features=768, bias=True)
                  (q_proj): Linear(in_features=768, out_features=768, bias=True)
                  (out_proj): Linear(in_features=768, out_features=768, bias=True)
                )
                (dropout1): Dropout(p=0.1, inplace=False)
                (dropout2): Dropout(p=0.0, inplace=False)
                (dropout3): Dropout(p=0.1, inplace=False)
                (self_attn_layer_norm): LayerNorm((768,), eps=1e-05, elementwise_affine=True)
                (fc1): Linear(in_features=768, out_features=3072, bias=True)
                (fc2): Linear(in_features=3072, out_features=768, bias=True)
                (final_layer_norm): LayerNorm((768,), eps=1e-05, elementwise_affine=True)
              )
              (8): TransformerSentenceEncoderLayer(
                (self_attn): MultiheadAttention(
                  (dropout_module): FairseqDropout()
                  (k_proj): Linear(in_features=768, out_features=768, bias=True)
                  (v_proj): Linear(in_features=768, out_features=768, bias=True)
                  (q_proj): Linear(in_features=768, out_features=768, bias=True)
                  (out_proj): Linear(in_features=768, out_features=768, bias=True)
                )
                (dropout1): Dropout(p=0.1, inplace=False)
                (dropout2): Dropout(p=0.0, inplace=False)
                (dropout3): Dropout(p=0.1, inplace=False)
                (self_attn_layer_norm): LayerNorm((768,), eps=1e-05, elementwise_affine=True)
                (fc1): Linear(in_features=768, out_features=3072, bias=True)
                (fc2): Linear(in_features=3072, out_features=768, bias=True)
                (final_layer_norm): LayerNorm((768,), eps=1e-05, elementwise_affine=True)
              )
              (9): TransformerSentenceEncoderLayer(
                (self_attn): MultiheadAttention(
                  (dropout_module): FairseqDropout()
                  (k_proj): Linear(in_features=768, out_features=768, bias=True)
                  (v_proj): Linear(in_features=768, out_features=768, bias=True)
                  (q_proj): Linear(in_features=768, out_features=768, bias=True)
                  (out_proj): Linear(in_features=768, out_features=768, bias=True)
                )
                (dropout1): Dropout(p=0.1, inplace=False)
                (dropout2): Dropout(p=0.0, inplace=False)
                (dropout3): Dropout(p=0.1, inplace=False)
                (self_attn_layer_norm): LayerNorm((768,), eps=1e-05, elementwise_affine=True)
                (fc1): Linear(in_features=768, out_features=3072, bias=True)
                (fc2): Linear(in_features=3072, out_features=768, bias=True)
                (final_layer_norm): LayerNorm((768,), eps=1e-05, elementwise_affine=True)
              )
              (10): TransformerSentenceEncoderLayer(
                (self_attn): MultiheadAttention(
                  (dropout_module): FairseqDropout()
                  (k_proj): Linear(in_features=768, out_features=768, bias=True)
                  (v_proj): Linear(in_features=768, out_features=768, bias=True)
                  (q_proj): Linear(in_features=768, out_features=768, bias=True)
                  (out_proj): Linear(in_features=768, out_features=768, bias=True)
                )
                (dropout1): Dropout(p=0.1, inplace=False)
                (dropout2): Dropout(p=0.0, inplace=False)
                (dropout3): Dropout(p=0.1, inplace=False)
                (self_attn_layer_norm): LayerNorm((768,), eps=1e-05, elementwise_affine=True)
                (fc1): Linear(in_features=768, out_features=3072, bias=True)
                (fc2): Linear(in_features=3072, out_features=768, bias=True)
                (final_layer_norm): LayerNorm((768,), eps=1e-05, elementwise_affine=True)
              )
              (11): TransformerSentenceEncoderLayer(
                (self_attn): MultiheadAttention(
                  (dropout_module): FairseqDropout()
                  (k_proj): Linear(in_features=768, out_features=768, bias=True)
                  (v_proj): Linear(in_features=768, out_features=768, bias=True)
                  (q_proj): Linear(in_features=768, out_features=768, bias=True)
                  (out_proj): Linear(in_features=768, out_features=768, bias=True)
                )
                (dropout1): Dropout(p=0.1, inplace=False)
                (dropout2): Dropout(p=0.0, inplace=False)
                (dropout3): Dropout(p=0.1, inplace=False)
                (self_attn_layer_norm): LayerNorm((768,), eps=1e-05, elementwise_affine=True)
                (fc1): Linear(in_features=768, out_features=3072, bias=True)
                (fc2): Linear(in_features=3072, out_features=768, bias=True)
                (final_layer_norm): LayerNorm((768,), eps=1e-05, elementwise_affine=True)
              )
            )
            (layer_norm): LayerNorm((768,), eps=1e-05, elementwise_affine=True)
          )
          (layer_norm): LayerNorm((512,), eps=1e-05, elementwise_affine=True)
          (final_proj): Linear(in_features=768, out_features=256, bias=True)
        )
        (dropout): FairseqDropout()
        (cif_proj): Linear(in_features=767, out_features=512, bias=True)
        (text_embedding): Embedding(10000, 512, padding_idx=1)
        (embed_positions): SinusoidalPositionalEmbedding()
        (transformer_layers): ModuleList(
          (0): TransformerEncoderLayer(
            (self_attn): MultiheadAttention(
              (dropout_module): FairseqDropout()
              (k_proj): Linear(in_features=512, out_features=512, bias=True)
              (v_proj): Linear(in_features=512, out_features=512, bias=True)
              (q_proj): Linear(in_features=512, out_features=512, bias=True)
              (out_proj): Linear(in_features=512, out_features=512, bias=True)
            )
            (self_attn_layer_norm): LayerNorm((512,), eps=1e-05, elementwise_affine=True)
            (dropout_module): FairseqDropout()
            (activation_dropout_module): FairseqDropout()
            (fc1): Linear(in_features=512, out_features=2048, bias=True)
            (fc2): Linear(in_features=2048, out_features=512, bias=True)
            (final_layer_norm): LayerNorm((512,), eps=1e-05, elementwise_affine=True)
          )
          (1): TransformerEncoderLayer(
            (self_attn): MultiheadAttention(
              (dropout_module): FairseqDropout()
              (k_proj): Linear(in_features=512, out_features=512, bias=True)
              (v_proj): Linear(in_features=512, out_features=512, bias=True)
              (q_proj): Linear(in_features=512, out_features=512, bias=True)
              (out_proj): Linear(in_features=512, out_features=512, bias=True)
            )
            (self_attn_layer_norm): LayerNorm((512,), eps=1e-05, elementwise_affine=True)
            (dropout_module): FairseqDropout()
            (activation_dropout_module): FairseqDropout()
            (fc1): Linear(in_features=512, out_features=2048, bias=True)
            (fc2): Linear(in_features=2048, out_features=512, bias=True)
            (final_layer_norm): LayerNorm((512,), eps=1e-05, elementwise_affine=True)
          )
          (2): TransformerEncoderLayer(
            (self_attn): MultiheadAttention(
              (dropout_module): FairseqDropout()
              (k_proj): Linear(in_features=512, out_features=512, bias=True)
              (v_proj): Linear(in_features=512, out_features=512, bias=True)
              (q_proj): Linear(in_features=512, out_features=512, bias=True)
              (out_proj): Linear(in_features=512, out_features=512, bias=True)
            )
            (self_attn_layer_norm): LayerNorm((512,), eps=1e-05, elementwise_affine=True)
            (dropout_module): FairseqDropout()
            (activation_dropout_module): FairseqDropout()
            (fc1): Linear(in_features=512, out_features=2048, bias=True)
            (fc2): Linear(in_features=2048, out_features=512, bias=True)
            (final_layer_norm): LayerNorm((512,), eps=1e-05, elementwise_affine=True)
          )
          (3): TransformerEncoderLayer(
            (self_attn): MultiheadAttention(
              (dropout_module): FairseqDropout()
              (k_proj): Linear(in_features=512, out_features=512, bias=True)
              (v_proj): Linear(in_features=512, out_features=512, bias=True)
              (q_proj): Linear(in_features=512, out_features=512, bias=True)
              (out_proj): Linear(in_features=512, out_features=512, bias=True)
            )
            (self_attn_layer_norm): LayerNorm((512,), eps=1e-05, elementwise_affine=True)
            (dropout_module): FairseqDropout()
            (activation_dropout_module): FairseqDropout()
            (fc1): Linear(in_features=512, out_features=2048, bias=True)
            (fc2): Linear(in_features=2048, out_features=512, bias=True)
            (final_layer_norm): LayerNorm((512,), eps=1e-05, elementwise_affine=True)
          )
          (4): TransformerEncoderLayer(
            (self_attn): MultiheadAttention(
              (dropout_module): FairseqDropout()
              (k_proj): Linear(in_features=512, out_features=512, bias=True)
              (v_proj): Linear(in_features=512, out_features=512, bias=True)
              (q_proj): Linear(in_features=512, out_features=512, bias=True)
              (out_proj): Linear(in_features=512, out_features=512, bias=True)
            )
            (self_attn_layer_norm): LayerNorm((512,), eps=1e-05, elementwise_affine=True)
            (dropout_module): FairseqDropout()
            (activation_dropout_module): FairseqDropout()
            (fc1): Linear(in_features=512, out_features=2048, bias=True)
            (fc2): Linear(in_features=2048, out_features=512, bias=True)
            (final_layer_norm): LayerNorm((512,), eps=1e-05, elementwise_affine=True)
          )
          (5): TransformerEncoderLayer(
            (self_attn): MultiheadAttention(
              (dropout_module): FairseqDropout()
              (k_proj): Linear(in_features=512, out_features=512, bias=True)
              (v_proj): Linear(in_features=512, out_features=512, bias=True)
              (q_proj): Linear(in_features=512, out_features=512, bias=True)
              (out_proj): Linear(in_features=512, out_features=512, bias=True)
            )
            (self_attn_layer_norm): LayerNorm((512,), eps=1e-05, elementwise_affine=True)
            (dropout_module): FairseqDropout()
            (activation_dropout_module): FairseqDropout()
            (fc1): Linear(in_features=512, out_features=2048, bias=True)
            (fc2): Linear(in_features=2048, out_features=512, bias=True)
            (final_layer_norm): LayerNorm((512,), eps=1e-05, elementwise_affine=True)
          )
        )
        (layer_norm): LayerNorm((512,), eps=1e-05, elementwise_affine=True)
        (cnn_subsampler): Conv1dSubsampler(
          (conv_layers): ModuleList(
            (0): Conv1d(768, 1024, kernel_size=(5,), stride=(2,), padding=(2,))
            (1): Conv1d(512, 1024, kernel_size=(5,), stride=(2,), padding=(2,))
          )
        )
      )
      (decoder): TransformerDecoderScriptable(
        (dropout_module): FairseqDropout()
        (embed_tokens): Embedding(10000, 512, padding_idx=1)
        (embed_positions): SinusoidalPositionalEmbedding()
        (layers): ModuleList(
          (0): TransformerDecoderLayer(
            (dropout_module): FairseqDropout()
            (self_attn): MultiheadAttention(
              (dropout_module): FairseqDropout()
              (k_proj): Linear(in_features=512, out_features=512, bias=True)
              (v_proj): Linear(in_features=512, out_features=512, bias=True)
              (q_proj): Linear(in_features=512, out_features=512, bias=True)
              (out_proj): Linear(in_features=512, out_features=512, bias=True)
            )
            (activation_dropout_module): FairseqDropout()
            (self_attn_layer_norm): LayerNorm((512,), eps=1e-05, elementwise_affine=True)
            (encoder_attn): MultiheadAttention(
              (dropout_module): FairseqDropout()
              (k_proj): Linear(in_features=512, out_features=512, bias=True)
              (v_proj): Linear(in_features=512, out_features=512, bias=True)
              (q_proj): Linear(in_features=512, out_features=512, bias=True)
              (out_proj): Linear(in_features=512, out_features=512, bias=True)
            )
            (encoder_attn_layer_norm): LayerNorm((512,), eps=1e-05, elementwise_affine=True)
            (fc1): Linear(in_features=512, out_features=2048, bias=True)
            (fc2): Linear(in_features=2048, out_features=512, bias=True)
            (final_layer_norm): LayerNorm((512,), eps=1e-05, elementwise_affine=True)
          )
          (1): TransformerDecoderLayer(
            (dropout_module): FairseqDropout()
            (self_attn): MultiheadAttention(
              (dropout_module): FairseqDropout()
              (k_proj): Linear(in_features=512, out_features=512, bias=True)
              (v_proj): Linear(in_features=512, out_features=512, bias=True)
              (q_proj): Linear(in_features=512, out_features=512, bias=True)
              (out_proj): Linear(in_features=512, out_features=512, bias=True)
            )
            (activation_dropout_module): FairseqDropout()
            (self_attn_layer_norm): LayerNorm((512,), eps=1e-05, elementwise_affine=True)
            (encoder_attn): MultiheadAttention(
              (dropout_module): FairseqDropout()
              (k_proj): Linear(in_features=512, out_features=512, bias=True)
              (v_proj): Linear(in_features=512, out_features=512, bias=True)
              (q_proj): Linear(in_features=512, out_features=512, bias=True)
              (out_proj): Linear(in_features=512, out_features=512, bias=True)
            )
            (encoder_attn_layer_norm): LayerNorm((512,), eps=1e-05, elementwise_affine=True)
            (fc1): Linear(in_features=512, out_features=2048, bias=True)
            (fc2): Linear(in_features=2048, out_features=512, bias=True)
            (final_layer_norm): LayerNorm((512,), eps=1e-05, elementwise_affine=True)
          )
          (2): TransformerDecoderLayer(
            (dropout_module): FairseqDropout()
            (self_attn): MultiheadAttention(
              (dropout_module): FairseqDropout()
              (k_proj): Linear(in_features=512, out_features=512, bias=True)
              (v_proj): Linear(in_features=512, out_features=512, bias=True)
              (q_proj): Linear(in_features=512, out_features=512, bias=True)
              (out_proj): Linear(in_features=512, out_features=512, bias=True)
            )
            (activation_dropout_module): FairseqDropout()
            (self_attn_layer_norm): LayerNorm((512,), eps=1e-05, elementwise_affine=True)
            (encoder_attn): MultiheadAttention(
              (dropout_module): FairseqDropout()
              (k_proj): Linear(in_features=512, out_features=512, bias=True)
              (v_proj): Linear(in_features=512, out_features=512, bias=True)
              (q_proj): Linear(in_features=512, out_features=512, bias=True)
              (out_proj): Linear(in_features=512, out_features=512, bias=True)
            )
            (encoder_attn_layer_norm): LayerNorm((512,), eps=1e-05, elementwise_affine=True)
            (fc1): Linear(in_features=512, out_features=2048, bias=True)
            (fc2): Linear(in_features=2048, out_features=512, bias=True)
            (final_layer_norm): LayerNorm((512,), eps=1e-05, elementwise_affine=True)
          )
          (3): TransformerDecoderLayer(
            (dropout_module): FairseqDropout()
            (self_attn): MultiheadAttention(
              (dropout_module): FairseqDropout()
              (k_proj): Linear(in_features=512, out_features=512, bias=True)
              (v_proj): Linear(in_features=512, out_features=512, bias=True)
              (q_proj): Linear(in_features=512, out_features=512, bias=True)
              (out_proj): Linear(in_features=512, out_features=512, bias=True)
            )
            (activation_dropout_module): FairseqDropout()
            (self_attn_layer_norm): LayerNorm((512,), eps=1e-05, elementwise_affine=True)
            (encoder_attn): MultiheadAttention(
              (dropout_module): FairseqDropout()
              (k_proj): Linear(in_features=512, out_features=512, bias=True)
              (v_proj): Linear(in_features=512, out_features=512, bias=True)
              (q_proj): Linear(in_features=512, out_features=512, bias=True)
              (out_proj): Linear(in_features=512, out_features=512, bias=True)
            )
            (encoder_attn_layer_norm): LayerNorm((512,), eps=1e-05, elementwise_affine=True)
            (fc1): Linear(in_features=512, out_features=2048, bias=True)
            (fc2): Linear(in_features=2048, out_features=512, bias=True)
            (final_layer_norm): LayerNorm((512,), eps=1e-05, elementwise_affine=True)
          )
          (4): TransformerDecoderLayer(
            (dropout_module): FairseqDropout()
            (self_attn): MultiheadAttention(
              (dropout_module): FairseqDropout()
              (k_proj): Linear(in_features=512, out_features=512, bias=True)
              (v_proj): Linear(in_features=512, out_features=512, bias=True)
              (q_proj): Linear(in_features=512, out_features=512, bias=True)
              (out_proj): Linear(in_features=512, out_features=512, bias=True)
            )
            (activation_dropout_module): FairseqDropout()
            (self_attn_layer_norm): LayerNorm((512,), eps=1e-05, elementwise_affine=True)
            (encoder_attn): MultiheadAttention(
              (dropout_module): FairseqDropout()
              (k_proj): Linear(in_features=512, out_features=512, bias=True)
              (v_proj): Linear(in_features=512, out_features=512, bias=True)
              (q_proj): Linear(in_features=512, out_features=512, bias=True)
              (out_proj): Linear(in_features=512, out_features=512, bias=True)
            )
            (encoder_attn_layer_norm): LayerNorm((512,), eps=1e-05, elementwise_affine=True)
            (fc1): Linear(in_features=512, out_features=2048, bias=True)
            (fc2): Linear(in_features=2048, out_features=512, bias=True)
            (final_layer_norm): LayerNorm((512,), eps=1e-05, elementwise_affine=True)
          )
          (5): TransformerDecoderLayer(
            (dropout_module): FairseqDropout()
            (self_attn): MultiheadAttention(
              (dropout_module): FairseqDropout()
              (k_proj): Linear(in_features=512, out_features=512, bias=True)
              (v_proj): Linear(in_features=512, out_features=512, bias=True)
              (q_proj): Linear(in_features=512, out_features=512, bias=True)
              (out_proj): Linear(in_features=512, out_features=512, bias=True)
            )
            (activation_dropout_module): FairseqDropout()
            (self_attn_layer_norm): LayerNorm((512,), eps=1e-05, elementwise_affine=True)
            (encoder_attn): MultiheadAttention(
              (dropout_module): FairseqDropout()
              (k_proj): Linear(in_features=512, out_features=512, bias=True)
              (v_proj): Linear(in_features=512, out_features=512, bias=True)
              (q_proj): Linear(in_features=512, out_features=512, bias=True)
              (out_proj): Linear(in_features=512, out_features=512, bias=True)
            )
            (encoder_attn_layer_norm): LayerNorm((512,), eps=1e-05, elementwise_affine=True)
            (fc1): Linear(in_features=512, out_features=2048, bias=True)
            (fc2): Linear(in_features=2048, out_features=512, bias=True)
            (final_layer_norm): LayerNorm((512,), eps=1e-05, elementwise_affine=True)
          )
        )
        (layer_norm): LayerNorm((512,), eps=1e-05, elementwise_affine=True)
        (output_projection): Linear(in_features=512, out_features=10000, bias=False)
      )
    )
  )
)), ('search', BeamSearch())]), 'tgt_dict': <fairseq.data.dictionary.Dictionary object at 0x7f191f74b2e0>, 'pad': 1, 'unk': 3, 'eos': 2, 'symbols_to_strip_from_output': {2}, 'vocab_size': 10000, 'beam_size': 4, 'max_len_a': 0, 'max_len_b': 200, 'min_len': 1, 'normalize_scores': True, 'len_penalty': 1.0, 'unk_penalty': 0, 'temperature': 1.0, 'match_source_len': False, 'no_repeat_ngram_size': 0, 'should_set_src_lengths': False, 'lm_model': None, 'lm_weight': 1.0}
